BrAInX/model_state_dictv1.pth (torch, 179986 bytes, 9 tensors)

cnn_model.0.weight f4 [6, 3, 5, 5]
-0.04163505 -0.007934083 -0.113606565 -0.03506689 -0.07813308 0.08257805 0.098126546 0.0856369
-0.07647336 0.03275758 0.075921826 -0.045395624 -0.006642382 0.0752162 0.03780912 0.014473975
-0.06674018 -0.076630294 -0.0062685036 0.059085015 0.01752128 -0.06748066 0.051879995 -0.09466499
-0.0501192 0.0065507176 0.043488044 -0.06915305 -0.0013890924 -0.11970894 0.049134176 -0.13312915
-0.13051629 -0.08274992 -0.10016058 -0.056002736 -0.032632098 0.08926477 0.079572685 -0.087609194
-0.12506239 -0.078576 -0.10512182 0.06759201 0.050034285 0.053145107 -0.013400648 -0.021675525
0.07090679 0.062193163 -0.0579106 -0.018753046 0.020694867 0.045559093 0.049847633 -0.00038094592
0.08030819 0.09615373 -0.07064282 0.10456527 0.120103225 0.04443022 -0.1018955 0.10586469
0.01457315 0.06390643 -0.055070296 0.046223134 0.07336393 0.067902 -0.099596605 -0.03955791
0.09973076 -0.06643661 -0.10354133 -0.06181233 0.03581193 0.07940479 0.11908985 -0.016843222
-0.08362722 -0.08412285 0.08249898 -0.029230557 0.06146492 0.017834246 -0.02582664 0.01648431
0.102853596 0.1045442 0.080675535 0.08791381 0.1084411 -0.076835915 0.11586419 0.010459017
0.099171944 -0.06845407 -0.09897816 -0.087345146 -0.10715663 0.007654038 -0.0146237295 -0.05464175
0.03441943 0.059979927 0.030556299 -0.040688355 0.10635645 -0.059548587 -0.0907941 0.019013725
0.07267386 0.10357661 -0.081493266 -0.07689695 -0.09039434 -0.08752248 -0.07265859 0.08595198
0.11933474 0.08988563 0.1206976 0.10176737 0.048739664 -0.05293461 0.10203872 -0.011643754
0.13582526 0.0218964 0.042036965 0.02784721 -0.066906944 0.014700415 0.050108872 0.05848255
-0.009560021 -0.0876074 0.0757907 0.112423286 0.08169146 0.09876246 0.08496999 -0.058122996
0.04061896 0.04680004 -0.052827924 0.06361658 0.011464461 0.04121593 -0.0644573 -0.19063793
-0.11034518 -0.17603977 -0.20805547 -0.19440986 -0.1487591 -0.046646312 -0.19352983 -0.02934792
-0.11123925 -0.14596802 -0.10167128 -0.042904798 -0.03175505 0.00032569226 -0.05476981 -0.17463227
-0.18314725 -0.10949738 0.024583474 0.029693747 -0.025405008 -0.044392794 -0.11566091 -0.07195366
-0.036752753 0.016101617 -0.058632508 0.06355202 0.13301496 -0.010801377 -0.0061145383 -0.057738453
0.13172567 0.046866976 0.0009462247 0.0953055 -0.024604471 -0.07772522 -0.0020975666 -0.07247726
0.12595436 -0.009158834 0.045165226 0.0057047387 0.11389966 0.09476643 0.072160415 -0.015923046
0.11906902 0.014705148 0.024725182 0.0065042414 0.010931966 0.014947269 0.0744302 -0.081541955
0.017808344 0.12147187 0.15706988 0.17244552 0.053862263 0.11629458 0.101801984 -0.018586794
0.08581955 0.14473051 0.08146247 0.08965354 0.030651582 -0.068094864 -0.028039709 -0.06410121
0.052560803 0.001095834 0.09462576 0.12746085 0.12141832 0.050363857 0.059365414 -0.0087472405
-0.0941634 -0.010918967 -0.095719606 0.05063837 0.059085343 0.12182783 0.117592975 -0.007113917
0.11135472 0.069989674 0.019948445 0.03763105 -0.043288097 0.00911992 0.06679404 -0.085251346
0.028085083 -0.06114068 0.114709884 0.056570224 -0.02334421 0.10238687 -0.0115258545 -0.04012492
00000000: 8489 2abd f5fd 01bc 8faa e8bd 4da2 0fbd
00000010: 3c04 a0bd ae1e a93d 92f6 c83d 6662 af3d
00000020: 119e 9cbd d02c 063d e77c 9b3d c3f0 39bd
00000030: 57a8 d9bb f30a 9a3d bcdd 1a3d 4024 6d3c
00000040: 13af 88bd 58f0 9cbd 0568 cdbb 2103 723d
00000050: ca88 8f3c 4d33 8abd 1e80 543d b8df c1bd
00000060: ca49 4dbd 67a7 d63b 8520 323d 1da0 8dbd
00000070: 3512 b6ba f629 f5bd eb40 493d 0253 08be
00000080: 10a6 05be ca78 a9bd fd20 cdbd 2063 65bd
00000090: 3ca9 05bd 73d0 b63d 01f7 a23d 736c b3bd
000000a0: 5b10 00be 74ec a0bd 1c4a d7bd ae6d 8a3d
000000b0: c0f0 4c3d afae 593d 648e 5bbc df90 b1bc
000000c0: 9437 913d 42be 7e3d aa33 6dbd fd9f 99bc
000000d0: 4888 a93c 2c9c 3a3d 082d 4c3d b2b9 c7b9
000000e0: 9f78 a43d 3fec c43d 2fad 90bd 5126 d63d
000000f0: aef8 f53d 76fc 353d 97ae d0bd 96cf d83d
00000100: 39c4 6e3c 60e1 823d 6491 61bd 7854 3d3d
00000110: d43f 963d 3410 8b3d 4ef9 cbbd 7a07 22bd
00000120: a43f cc3d eb0f 88bd 7a0d d4bd ed2e 7dbd
00000130: 88af 123d fb9e a23d 61e5 f33d ccfa 89bc
00000140: bf44 abbd 9a48 acbd 3af5 a83d ec74 efbc
00000150: a4c2 7b3d 2019 923c 6492 d3bc 1b0a 873c
00000160: e8a4 d23d 451b d63d 3739 a53d 280c b43d
00000170: 5e16 de3d 265c 9dbd 344a ed3d 4c5c 2b3c
00000180: a91a cb3d a631 8cbd 10b5 cabd 03e2 b2bd
00000190: ef74 dbbd b9ce fa3b 5e98 6fbc 07d0 5fbd
000001a0: 63fb 0c3d 83ad 753d 3451 fa3c d5a8 26bd
000001b0: 69d1 d93d 38e9 73bd 42f2 b9bd acc2 9b3c
000001c0: 08d6 943d f91f d43d f1e5 a6bd 267c 9dbd
000001d0: ab20 b9bd fc3e b3bd 07ce 94bd 9707 b03d
000001e0: c665 f43d f515 b83d 4e30 f73d 696b d03d
000001f0: 3ea3 473d f6d1 58bd adf9 d03d 72c5 3ebc
00000200: c715 0b3e 1460 b33c f42e 2c3d d51f e43c
00000210: 8206 89bd 02da 703c f63e 4d3d 668b 6f3d
00000220: a2a1 1cbc 826b b3bd 2838 9b3d 2e3e e63d
00000230: da4d a73d f943 ca3d bf04 ae3d 6112 6ebd
00000240: 1160 263d 66b1 3f3d 1862 58bd 6949 823d
00000250: 6fd5 3b3c 09d2 283d 3002 84bd 9736 43be
00000260: a7fc e1bd c543 34be 7e0c 55be 6113 47be
00000270: 4e54 18be 3410 3fbd af2c 46be 0d6b f0bc
00000280: 67d1 e3bd a478 15be 0839 d0bd f1bc 2fbd
00000290: 9511 02bd adc1 aa39 4f56 60bd cdd2 32be
000002a0: f48a 3bbe 2a40 e0bd 4863 c93c 4d40 f33c
000002b0: 2a1e d0bc 38d5 35bd a1df ecbd 715c 93bd
000002c0: 0e8a 16bd 8ae7 833c a428 70bd 9027 823d
000002d0: 1335 083e 42f8 30bc 775c c8bb 287f 6cbd
000002e0: 18e3 063e 96f7 3f3d 110c 783a 882f c33d
000002f0: 518f c9bc 662e 9fbd 5477 09bb f56e 94bd
00000300: 2efa 003e ef0e 16bc 2cff 383d d1ee ba3b
00000310: 3a44 e93d e714 c23d d7c8 933d 0c71 82bc
00000320: 75da f33d dced 703c 778c ca3c 8821 d53b
00000330: fd1b 333c 64e5 743c dc6e 983d 78ff a6bd
00000340: cee2 913c 3ec6 f83d edd6 203e 8f95 303e
00000350: ad9e 5c3d da2b ee3d 8f7d d03d 5543 98bc
00000360: 29c2 af3d 3c34 143e ccd5 a63d 469c b73d
00000370: 0719 fb3c 5275 8bbd 88b3 e5bc 7f47 83bd
00000380: ff49 573d 16a2 8f3a 27cb c13d 1985 023e
00000390: 2baa f83d 554a 4e3d 2629 733d 9650 0fbc
000003a0: bed8 c0bd 78e5 32bc a408 c4bd 2e6a 4f3d
000003b0: 7903 723d df80 f93d 96d4 f03d dc1b e9bb
000003c0: f20d e43d bf56 8f3d ec6a a33c 0423 1a3d
000003d0: dc4e 31bd b86b 153c 50cb 883d 4298 aebd
000003e0: b012 e63c a66e 7abd 04ed ea3d 2eb6 673d
000003f0: 5b3c bfbc 35b0 d13d f0d6 3cbc 075a 24bd

cnn_model.0.bias f4 [6]
0.08224741 -0.06418998 -0.03589565 -0.041825503 0.062177747 -0.01809569
00000000: 5571 a83d 0976 83bd 5107 13bd 3851 2bbd
00000010: 18ae 7e3d 6a3d 94bc

cnn_model.3.weight f4 [16, 6, 5, 5]
-0.15149547 -0.14810556 0.00020019089 -0.036236096 0.044655014 -0.27376702 -0.24682344 -0.24980775
-0.118934624 0.08545641 -0.1460517 -0.2505045 -0.14264174 -0.028968163 0.041776136 -0.08049618
-0.048657846 -0.0041605234 0.09471221 -0.04301105 0.09547788 0.12885928 -0.028470712 -0.024865849
-0.099434294 0.1115243 0.0473132 -0.056542337 0.029867958 -0.06817946 0.0043248655 0.004553572
0.032407112 -0.03974965 0.10608676 0.029731622 0.032751832 -0.030452492 -0.018451368 0.009342644
0.12935168 0.07398316 0.032088317 -0.04027777 2.6250498e-05 0.03454147 0.011263103 -0.029443724
-0.010565584 0.01595703 0.02049075 -0.08483614 -0.00750136 0.013749638 -0.07852506 -0.0786106
-0.041613176 -0.039300703 -0.012368776 0.08452398 0.0070810234 -0.07168711 -0.08953403 -0.004727221
0.028183568 -0.017636346 0.060017798 0.08028978 -0.007139873 -0.06837336 0.08435347 0.045613393
0.0154423 0.0046829474 0.030183546 0.059211396 0.13053909 0.09130979 -0.08735699 0.018686341
0.0066651837 0.069884956 -0.0025025913 0.08289044 0.059113085 -0.005544668 0.026702898 -0.05042316
0.08753923 -0.06098656 0.05736198 -0.06320205 -0.0069739204 0.02711439 -0.066953875 -0.0016283004
-0.012838461 0.053299133 0.04624548 0.044694737 0.09174352 0.056962688 0.050596923 -0.05806746
0.05562117 0.060592234 0.025251416 0.11230494 0.12384338 0.05053113 0.009535155 -0.021266282
-0.03612783 0.06175206 -5.71056e-05 0.050391626 0.06527192 0.039237227 -0.05337836 0.061139047
-0.07707795 0.032642603 -0.03359868 0.014157207 0.058930643 0.0709959 -0.024876077 0.089196414
0.15773182 0.18225388 0.057927318 0.011306568 -0.009078861 -0.022092186 0.12693138 0.0029935595
-0.011789774 -0.026998624 -0.11781145 0.00536928 0.0046381843 -0.012821839 -0.07335305 -0.019898394
0.10776438 0.03745474 0.10000896 -0.050262984 -0.08872642 -0.06322173 -0.16511826 -0.05610213
-0.038175836 -0.03430296 -0.0341047 -0.095071085 -0.07194157 -0.071936615 -0.07962206 -0.043529313
-0.07876767 -0.033081684 0.0057673613 0.04583493 -0.102964714 0.047747757 0.09936377 0.015680041
0.0033291085 -0.13399012 -0.04782019 0.051939297 0.081328824 -0.025617812 -0.0434058 -0.056126744
0.056241404 0.042452082 0.07771458 -0.013281712 0.035786293 0.07220259 0.045770228 -0.05036191
0.03864152 0.014196388 -0.0579956 -0.013573449 0.035436187 0.06560217 0.054385588 -0.07069374
-0.011588302 -0.022524366 0.0894093 0.0921411 0.0359552 -0.016081406 0.03525338 0.0014004257
0.0449602 0.022275496 -0.08307609 -0.059227556 -0.053449333 -0.022380624 0.047113486 -0.0010431181
0.020523118 -0.006328664 -0.018741917 -0.024747605 0.0064901146 0.039100196 -0.0061625945 -0.041600022
0.03159291 0.10142769 0.04072237 -0.03338035 -0.0015952179 0.073219165 0.07963616 0.059427038
0.056356564 -0.0060815774 -0.051363196 -0.037031814 -0.012860547 0.05578873 -0.0012213129 -0.0010091561
-0.05498283 0.050359342 -0.05356544 -0.07893063 0.048793584 -0.03869985 -0.06701863 0.013061958
-0.04867821 0.027608432 0.07824505 -0.051434875 -0.01231198 0.081828736 0.0038918916 0.033558793
0.06783 0.012453171 0.017490946 0.06971779 0.006212342 0.07696165 0.03202725 0.07453474
00000000: a121 1bbe fca8 17be 55ea 5139 4d6c 14bd
00000010: 2de8 363d 312b 8cbe 49bf 7cbe 9acd 7fbe
00000020: ff93 f3bd c503 af3d 948e 15be 2042 80be
00000030: ad10 12be a44e edbc 741d 2b3d 2edb a4bd
00000040: 734d 47bd 0055 88bb 7af8 c13d 5b2c 30bd
00000050: e889 c33d b0f3 033e 693b e9bc 77b3 cbbc
00000060: 35a4 cbbd da66 e43d 7ccb 413d f098 67bd
00000070: a6ad f43c aca1 8bbd 9ab7 8d3b 2136 953b
00000080: 52bd 043d 87d0 22bd 0444 d93d bb8f f33c
00000090: c926 063d 8177 f9bc 5327 97bc e411 193c
000000a0: c474 043e 7c84 973d 0a6f 033d 4efa 24bd
000000b0: 8434 dc37 5b7b 0d3d e188 383c f733 f1bc
000000c0: 451b 2dbc 51b8 823c 38dc a73c 92be adbd
000000d0: f8cd f5bb 2946 613c bfd1 a0bd 98fe a0bd
000000e0: 9472 2abd c6f9 20bd 68a6 4abc e91a ad3d
000000f0: ee07 e83b b1d0 92bd 9e5d b7bd cee6 9abb
00000100: 3ae1 e63c 197a 90bc 39d5 753d f86e a43d
00000110: 99f5 e9bb 5507 8cbd 83c1 ac3d 1cd5 3a3d
00000120: b301 7d3c 6973 993b 7c43 f73c a687 723d
00000130: 0aac 053e a100 bb3d 39e8 b2bd 1914 993c
00000140: 9d67 da3b d81f 8f3d 8402 24bb 77c2 a93d
00000150: 9020 723d 0cb0 b5bb 09c0 da3c 8488 4ebd
00000160: c547 b33d 0bcd 79bd 65f4 6a3d 1470 81bd
00000170: 7c85 e4bb ff1e de3c 1d1f 89bd b26c d5ba
00000180: 6958 52bc 3150 5a3d e76b 3d3d d411 373d
00000190: 07e4 bb3d b551 693d b83e 4f3d 25d8 6dbd
000001a0: 06d3 633d 902f 783d 0fdc ce3c 2200 e63d
000001b0: 99a1 fd3d bbf9 4e3d 5739 1c3c a036 aebc
000001c0: c7fa 13bd baef 7c3d ac84 6fb8 7367 4e3d
000001d0: 49ad 853d 37b7 203d 44a3 5abd f06c 7a3d
000001e0: 0bdb 9dbd 40b4 053d c59e 09bd a1f3 673c
000001f0: 4261 713d 4c66 913d eac8 cbbc 9cac b63d
00000200: 7384 213e c3a0 3a3e 3245 6d3d 2f3f 393c
00000210: 81bf 14bc acfa b4bc 4dfa 013e 982f 443b
00000220: e529 41bc 382c ddbc 2147 f1bd c9f0 af3b
00000230: e9fb 973b b112 52bc 203a 96bd f501 a3bc
00000240: 92b3 dc3d 246a 193d 7fd1 cc3d 8fe0 4dbd
00000250: 33b6 b5bd 657a 81bd c314 29be 59cb 65bd
00000260: 445e 1cbd 4381 0cbd 5fb1 0bbd a1b4 c2bd
00000270: 1a56 93bd 8153 93bd e410 a3bd cb4b 32bd
00000280: f250 a1bd a980 07bd 22fc bc3b 68bd 3b3d
00000290: 2adf d2bd 2793 433d 3b7f cb3d 6e73 803c
000002a0: 2c2d 5a3b b534 09be 1bdf 43bd 4dbe 543d
000002b0: ba8f a63d 72dc d1bc 48ca 31bd 28e5 65bd
000002c0: 635d 663d 3ce2 2d3d d228 9f3d 8a9b 59bc
000002d0: a694 123d f4de 933d 9079 3b3d 4a48 4ebd
000002e0: 9246 1e3d f897 683c cb8c 6dbd 2c63 5ebc
000002f0: 8925 113d 6e5a 863d 6cc3 5e3d e1c7 90bd
00000300: dddc 3dbc 0585 b8bc 391c b73d 79b4 bc3d
00000310: c345 133d 27bd 83bc d965 103d 7d8e b73a
00000320: 3028 383d 1a7b b63c cc23 aabd 9898 72bd
00000330: b0ed 5abd 9257 b7bc 12fa 403d 3cb9 88ba
00000340: 1920 a83c ae60 cfbb a688 99bc 7dbb cabc
00000350: 07ab d43b 8727 203d 97ef c9bb c964 2abd
00000360: 9167 013d 52b9 cf3d 80cc 263d d5b9 08bd
00000370: a116 d1ba eef3 953d 4818 a33d c469 733d
00000380: 24d6 663d f847 c7bb 3762 52bd acae 17bd
00000390: 0bb5 52bc b982 643d 7614 a0ba a945 84ba
000003a0: ad35 61bd 9945 4e3d 6f67 5bbd 62a6 a1bd
000003b0: c8db 473d bc83 1ebd 1041 89bd d301 563c
000003c0: cd62 47bd 142b e23c f13e a03d 60ad 52bd
000003d0: 30b8 49bc d395 a73d 1b0f 7f3b f274 093d
000003e0: 74ea 8a3d 6308 4c3c 2c49 8f3c 33c8 8e3d
000003f0: e790 cb3b 129e 9d3d 012f 033d aba5 983d

cnn_model.3.bias f4 [16]
-0.047947686 0.0054693697 0.075131014 0.0064017046 0.0034565788 -0.04030208 -0.054356553 0.08946705
0.008854507 -0.028334152 0.026909476 -0.07339055 0.06579933 0.020490432 0.004865835 -0.033476178
00000000: cb64 44bd 6638 b33b 4ade 993d 64c5 d13b
00000010: c587 623b cb13 25bd faa4 5ebd 803a b73d
00000020: 7e12 113c 061d e8bc 4371 dc3c c94d 96bd
00000030: cdc1 863d 8ddb a73c 9571 9f3b 511e 09bd

fc_model.0.weight f4 [120, 256]
-0.034067582 0.017094217 -0.08746466 0.024885753 -0.0012427954 -0.026053129 0.04614545 0.07783877
-0.08353883 0.115229204 0.047901526 -0.029058615 -0.035591926 -0.043945145 0.098027505 0.06323462
0.018965697 0.039393928 -0.0019320506 0.055196587 0.004611916 0.033466484 0.055971622 -0.03448771
-0.05766457 0.05114966 0.07558832 0.05521602 -0.035756107 0.01961652 0.05958704 0.09495422
-0.059108313 -0.032295235 -0.0021187975 -0.12001591 -0.0015367223 -0.004622436 0.045279916 -0.067193516
-0.032397017 -0.05259972 -0.051464614 -0.078106366 -0.032520365 0.024753284 -0.04360758 -0.030974455
-0.017411085 -0.026623005 -0.008890617 -0.042463373 -0.07272524 0.022971552 0.036319043 0.042464428
0.06860216 -0.11804753 -0.11630296 -0.06998755 -0.03806088 -0.02890918 -0.024417145 -0.016440991
0.021746362 -0.009333812 0.024082672 -0.17176592 -0.02334089 0.053477176 0.03886045 -0.0433303
0.063744076 -0.056951538 0.030150976 -0.011439706 -0.01746589 -0.0073566744 -0.025614168 0.048592553
0.06688619 -0.014040272 0.06386154 0.022066664 -0.039942566 0.04055494 0.050050445 0.07475965
0.030501883 -0.038892068 0.024961917 0.027582752 -0.04237183 -0.028963555 -0.005804673 -0.03798451
-0.016017819 -0.019909691 0.0454151 -0.041207436 -0.044896275 0.007815551 0.041180443 0.0018884881
0.043481734 -0.03730019 0.045371916 -0.030347418 -0.024398206 0.011365006 0.017635599 0.011969287
-0.016763302 0.028432619 0.08181191 0.048343144 0.052349746 -0.001107325 -0.0038518626 -0.12683493
-0.039914906 0.0054539144 -0.041184045 0.03894928 -0.06298109 0.02763307 0.056690793 -0.06603232
0.015642162 0.040832713 0.019671157 0.042929262 0.06555981 0.0038279316 -0.06102553 -0.0037575914
-0.012663445 -0.06648388 -0.04881076 0.009179253 -0.0020129522 -0.058498412 -0.048966307 0.03626228
0.014157659 0.07746328 -0.006185616 -0.009118175 0.01767646 -0.083093 0.053070426 -0.037950978
0.031338725 -0.012169312 0.036894172 0.01581482 -0.0027311835 0.07195935 0.0075215506 0.048847537
0.03460836 -0.07263023 0.041742988 -0.043750547 0.01587424 0.005246473 0.053482413 -0.03676244
-0.037244234 0.0341137 -0.00794192 -0.03698612 0.035263736 -0.0087678 0.054341327 0.05788184
-0.01991645 0.015826836 0.053278107 -0.026564857 -0.011966459 0.10680092 0.11413211 0.0053639757
-0.016693976 -0.016510528 -0.042171672 0.07128563 0.01978817 0.0865153 -0.04595664 0.0031470403
-0.08947832 -0.046277974 0.05241441 -0.16507411 -0.02221515 0.04725283 0.0403549 0.032218065
-0.016361002 -0.058751933 -0.11538912 0.042614315 -0.02621836 -0.046179138 -0.026642539 -0.05722665
-0.06322653 -0.058150098 -0.008939744 -0.054424927 -0.0414304 0.057499558 0.0029693944 -0.06631161
0.009765924 -0.07239033 -0.018007513 -0.028446844 0.0013736027 0.008808019 -0.058777664 -0.068978295
0.019935159 0.044982255 -0.034380812 -0.018363038 0.085496925 -0.060225047 -0.0782311 -0.0010151205
0.017197877 0.078008905 -0.030169662 0.011270601 0.0013637462 0.031646904 0.032165732 0.008859824
0.014948653 0.0061223735 0.014875766 0.0066099805 0.01489717 0.08535952 0.04716573 -0.013113345
-0.018057982 0.010316608 -0.0167463 0.076848894 0.022236265 0.0633909 -0.056025077 -0.013906251
00000000: 738a 0bbd 2c09 8c3c ac20 b3bd 35dd cb3c
00000010: 4be5 a2ba 5f6d d5bc 0303 3d3d ef69 9f3d
00000020: 6816 abbd 4afd eb3d 6434 443d 550c eebc
00000030: d7c8 11bd d3ff 33bd a5c2 c83d 2781 813d
00000040: f35d 9b3c 875b 213d dc3c fdba d115 623d
00000050: 8e1f 973b 2714 093d 8042 653d fc42 0dbd
00000060: af31 6cbd 4e82 513d 0dce 9a3d 322a 623d
00000070: ff74 12bd d3b2 a03c 8a11 743d 5c77 c23d
00000080: 8f1b 72bd 0248 04bd 86db 0abb e7ca f5bd
00000090: d86b c9ba ce77 97bb 6f77 393d c19c 89bd
000000a0: bcb2 04bd ce72 57bd 8fcc 52bd 3bf6 9fbd
000000b0: 1334 05bd 66c7 ca3c dd9d 32bd 24be fdbc
000000c0: b1a1 8ebc 7d18 dabc f3a9 11bc 13ee 2dbd
000000d0: f8f0 94bd d62e bc3c 47c3 143d 2eef 2d3d
000000e0: 4a7f 8c3d e7c2 f1bd 3f30 eebd a255 8fbd
000000f0: bae5 1bbd f2d2 ecbc 7706 c8bc 42af 86bc
00000100: 6d25 b23c d8ec 18bc 0649 c53c 68e3 2fbe
00000110: 6535 bfbc e20a 5b3d 232c 1f3d 1d7b 31bd
00000120: 418c 823d 0446 69bd 2eff f63c 9b6d 3bbc
00000130: a014 8fbc 4210 f1bb ced4 d1bc fc08 473d
00000140: a0fb 883d 2b09 66bc d7c9 823d 26c5 b43c
00000150: d19a 23bd f01c 263d b201 4d3d 961b 993d
00000160: 16df f93c 4a4d 1fbd ef7c cc3c 39f5 e13c
00000170: 168e 2dbd fa44 edbc 2035 bebb a595 1bbd
00000180: cd37 83bc a619 a3bc 2f05 3a3d 21c9 28bd
00000190: 28e5 37bd cc0c 003c d3ac 283d 2587 f73a
000001a0: e719 323d 16c8 18bd e7d7 393d 269b f8bc
000001b0: bfde c7bc 4a34 3a3c 8878 903c d41a 443c
000001c0: 3153 89bc 86eb e83c 018d a73d 7603 463d
000001d0: b06c 563d a923 91ba 886f 7cbb 04e1 01be
000001e0: d07d 23bd c0b6 b23b 9ab0 28bd 4889 1f3d
000001f0: 3bfc 80bd bf5e e23c 9b34 683d f43b 87bd
00000200: fe23 803c 3440 273d 6825 a13c 98d6 2f3d
00000210: 3944 863d 09de 7a3b e8f5 79bd ec41 76bb
00000220: 577a 4fbc b328 88bd cbed 47bd 9464 163c
00000230: bceb 03bb 089c 6fbd e590 48bd c287 143d
00000240: 87f5 673c 11a5 9e3d b5b0 cabb 6664 15bc
00000250: 39ce 903c aa2c aabd 6060 593d 7c72 1bbd
00000260: 095d 003d cb61 47bc 581e 173d 158e 813c
00000270: a8fd 32bb 6c5f 933d 5777 f63b 5b14 483d
00000280: 7fc1 0d3d 28bf 94bd b2fa 2a3d c633 33bd
00000290: b20a 823c 9bea ab3b 6010 5b3d 3694 16bd
000002a0: 698d 18bd cfba 0b3d d41e 02bc c27e 17bd
000002b0: b570 103d d2a6 0fbc 0395 5e3d 8215 6d3d
000002c0: d327 a3bc 48a7 813c 253a 5a3d 8b9e d9bc
000002d0: f80e 44bc 71ba da3d 18be e93d 4ac4 af3b
000002e0: cec1 88bc 1641 87bc 34bc 2cbd 33fe 913d
000002f0: cd1a a23c ef2e b13d 083d 3cbd 933e 4e3b
00000300: 6940 b7bd f98d 3dbd 7eb0 563d 3009 29be
00000310: 8cfc b5bc 2f8c 413d 2e4b 253d 17f7 033d
00000320: 8207 86bc dea5 70bd 2251 ecbd 598c 2e3d
00000330: e3c7 d6bc 5626 3dbd 7441 dabc 7e66 6abd
00000340: e97c 81bd cc2e 6ebd 0178 12bc acec 5ebd
00000350: ecb2 29bd a884 6b3d 2c9a 423b 62ce 87bd
00000360: 4101 203c 6241 94bd 7e84 93bc 5b09 e9bc
00000370: 750a b43a 824f 103c d9c0 70bd 7e44 8dbd
00000380: 0f4f a33c 503f 383d e5d2 0cbd 156e 96bc
00000390: 0319 af3d 8aae 76bd a137 a0bd cb0d 85ba
000003a0: 90e2 8c3c 22c3 9f3d 5e26 f7bc 54a8 383c
000003b0: bbbf b23a 2fa0 013d 37c0 033d cc28 113c
000003c0: 32eb 743c 319e c83b 7cb9 733c 8998 d83b
000003d0: 4213 743c f9d0 ae3d da30 413d 5bd9 56bc
000003e0: 55ee 93bc fd06 293c 892f 89bc f462 9d3d
000003f0: d428 b63c 17d3 813d 8d7a 65bd 0bd7 63bc

fc_model.0.bias f4 [120]
0.030398957 0.0034100106 0.0024504063 -0.030566432 -0.034144957 -0.021604065 -0.012430053 -0.030012397
-0.008173074 -0.044148345 -0.0076177185 -0.01275557 0.010686058 0.012444524 -0.0127675105 -0.05488667
0.014478333 0.04354754 0.037909444 0.06102149 -0.014730938 0.022187056 0.019324208 -0.030970493
-0.026195867 -0.010283037 0.027765252 0.0057187667 0.0031887528 0.046087366 0.034414176 -0.014150484
-0.053656112 0.014126119 -0.040977284 0.024539823 0.04456565 0.03999976 -0.045515638 0.0005733894
0.034178715 -0.01160518 0.024098514 -0.056604635 -0.013452306 -0.03349561 -0.00484476 0.024562946
-0.013122729 0.001449522 -0.00052509276 0.016202657 0.027610192 -0.015282972 -0.016448021 0.031100124
0.0007486223 0.02843623 -0.0538567 -0.035411425 -0.043586496 0.053055502 0.041015327 -0.053137314
0.017378414 0.0057996563 0.0020488126 0.0128032295 -0.05618364 -0.0572745 -0.014376477 0.023118861
-0.02042556 0.021965627 -0.053575538 -0.020832825 0.00077854376 -0.03773645 0.008275865 -0.06402925
0.022816325 0.016070293 0.027148364 -0.062124 0.05026855 0.046617627 -0.060060374 0.002811782
0.038632654 0.015900569 0.052513145 -0.034898106 0.043628093 -0.033320744 -0.00821027 -0.03158137
-0.0068689384 -0.025952067 -0.005228307 -0.037509378 0.05242804 0.03996444 0.03772747 0.05235605
-0.0067186146 -0.0127370525 -0.03372568 0.03148991 -0.030544946 -0.049860135 0.01410748 -0.002663796
0.02441412 -0.014786255 0.016289445 0.031638727 -0.037432235 0.05435208 0.052146126 -0.031006247
00000000: 3c07 f93c 7c7a 5f3b ff96 203b 7466 fabc
00000010: 95db 0bbd 02fb b0bc 6ca7 4bbc 8fdc f5bc
00000020: 5be8 05bc e5d4 34bd 0e9e f9bb bdfc 50bc
00000030: 9314 2f3c 1ee4 4b3c d22e 51bc d8d0 60bd
00000040: 8836 6d3c e85e 323d ef46 1b3d abf1 793d
00000050: 085a 71bc a1c1 b53c cd4d 9e3c d5b5 fdbc
00000060: b798 d6bc 2f7a 28bc f473 e33c 7e64 bb3b
00000070: 65fa 503b 1bc6 3c3d e1f5 0c3d 6fd7 67bc
00000080: 83c6 5bbd 3d71 673c ccd7 27bd bd07 c93c
00000090: 798a 363d cad6 233d 9b6e 3abd 834f 163a
000000a0: fbfe 0b3d a723 3ebc 3f6a c53c 43da 67bd
000000b0: 1067 5cbc b132 09bd cbc0 9ebb 3b38 c93c
000000c0: b700 57bc e3fd bd3a 61a6 09ba 6fbb 843c
000000d0: c52e e23c 6e65 7abc 00be 86bc b0c5 fe3c
000000e0: 313f 443a 19f3 e83c d898 5cbd 920b 11bd
000000f0: c187 32bd ba50 593d b0ff 273d 83a6 59bd
00000100: 2d5d 8e3c 0b0b be3b 5f45 063b a3c4 513c
00000110: d120 66bd ab98 6abd 518b 6bbc c463 bd3c
00000120: 8153 a7bc 42f1 b33c 0672 5bbd 9aa9 aabc
00000130: 3017 4c3a 8991 1abd 7e97 073c c421 83bd
00000140: 4de9 ba3c d9a5 833c 3f66 de3c bc75 7ebd
00000150: 65e6 4d3d 20f2 3e3d de01 76bd e045 383b
00000160: 463d 1e3d e941 823c 0618 573d 51f1 0ebd
00000170: 5fb3 323d 557b 08bd 5e84 06bc 775b 01bd
00000180: d514 e1bb 6e99 d4bc 3852 abbb 6fa3 19bd
00000190: c9be 563d c1b1 233d 1f88 1a3d 4c73 563d
000001a0: d327 dcbb 12af 50bc f023 0abd 90fb 003d
000001b0: 6539 fabc 243a 4cbd 0f23 673c 1593 2ebb
000001c0: 1f00 c83c 0c42 72bc 7171 853c 9c97 013d
000001d0: 8b52 19bd 49a0 5e3d 2d97 553d d000 febc

fc_model.2.weight f4 [84, 120]
-0.057902593 0.17831467 -0.1212729 -0.051111322 -0.1156409 0.07802757 -0.11648949 -0.1073136
-0.14195798 -0.12145728 -0.24287379 -0.1996336 -0.14577846 0.2428445 0.14588095 -0.06738835
0.0012380902 0.03789301 -0.11835554 0.06559054 -0.10011728 -0.0052675046 0.05393261 -0.08158106
-0.119124055 0.11411482 -0.15616003 0.004489438 -0.24818574 0.011414317 0.001881885 -0.17183247
-0.16102375 -0.116378196 0.0024925636 0.13262668 0.06005618 0.10358076 0.055441797 -0.059861433
-0.11273417 0.019622901 0.1266976 -0.10727761 -0.113239154 -0.11953583 0.015785644 -0.024636135
0.051484674 -0.02152873 -0.06918174 -0.0075295293 -0.13379934 0.11435703 0.057711788 -0.008715363
-0.11774581 -0.19230701 -0.034417722 0.00021331561 0.18183942 -0.10849961 -0.12824139 -0.1106875
0.06232469 -0.15405597 -0.06596263 -0.055127945 -0.10211987 0.000860573 0.15812403 -0.2874854
-0.016912695 -0.029774114 -0.041786306 -0.19024093 -0.1467192 -0.124546334 -0.014908086 -0.03203928
-0.085100055 -0.09605066 -0.034027386 -0.005733517 0.29626325 0.12715904 -0.2715906 0.033165842
-0.030295137 0.18678734 -0.07900674 -0.042392023 0.12978753 -0.200284 -0.05953392 -0.14865912
0.054878805 -0.11097021 0.0787892 0.085458264 -0.113072015 0.121513665 -0.06320582 0.18262489
0.053594198 0.089815736 0.2782583 -0.038573887 -0.04278749 0.08953566 0.077531695 0.07969802
-0.10418409 0.04305721 0.09453607 0.03453627 -0.0983153 0.14171147 0.14632694 0.052378196
0.053140115 -0.007362151 -0.16685957 -0.16483742 -0.14038977 -0.0020758542 -0.020562872 0.047951337
-0.11671392 0.026529446 -0.12856224 -0.08192207 0.00045139584 0.096595384 -0.01948341 -0.05881245
-0.014509075 -0.052232336 -0.05827876 -0.044811003 0.03183009 -0.011958338 0.008834425 0.0878337
-0.034787916 -0.023278566 -0.107230164 -0.064705886 -0.096350245 0.062198527 -0.14624947 -0.036130577
-0.09855296 0.052021693 0.012320179 0.15305674 0.03726128 0.08227529 -0.07153288 -0.07814192
-0.07923081 -0.066826925 0.12921028 -0.058207624 -0.046940885 -0.010382181 0.10000628 -0.14931536
-0.043909136 0.05141577 0.05168628 -0.07922416 -0.07625675 -0.012310422 -0.05022903 0.052770283
-0.0786154 -0.1545988 -0.023151172 -0.06984914 0.044589724 -0.0007990976 -0.008162957 0.032200653
0.072798565 -0.065006725 -0.05392213 0.019824244 0.024332577 0.06522539 0.068791166 -0.17744127
-0.13705347 -0.08335027 0.01544758 -0.027851332 -0.10021488 -0.03650039 -0.07776099 -0.024778964
0.020046605 0.059267674 -0.0068297004 -0.03150253 0.09799913 0.05524687 -0.0743004 0.017905502
-0.107424274 0.0009972128 -0.0808298 -0.034697656 0.0049591446 -0.06576639 -0.01018583 -0.033905916
0.11401258 -0.058782432 -0.031948376 -0.102826044 -0.053524096 -0.05954363 -0.0014258539 0.062743515
-0.058898725 0.034314297 0.15393506 0.025735883 0.04083183 0.10902032 0.09072932 0.13525628
-0.05552451 0.06978729 -0.06183908 0.08954339 -0.0402514 0.0343164 -0.019987248 -0.049177986
-0.015585129 -0.017301325 0.00637027 0.101042256 0.109916575 0.066957995 -0.021818202 -0.03743016
-0.035842042 0.09547599 0.041467544 0.0042284373 0.07869459 0.03258414 -0.106924854 0.12048423
00000000: 452b 6dbd 1f98 363e ed5d f8bd 1b5a 51bd
00000010: 23d5 ecbd ebcc 9f3d 0b92 eebd 3cc7 dbbd
00000020: 6f5d 11be 98be f8bd e8b3 78be c06c 4cbe
00000030: f346 15be 3bac 783e d161 153e e702 8abd
00000040: 6a47 a23a b335 1b3d 6464 f2bd 5554 863d
00000050: 4a0a cdbd 089b acbb 71e8 5c3d f913 a7bd
00000060: 50f7 f3bd 08b5 e93d 6ae8 1fbe 231c 933b
00000070: 6724 7ebe 1e03 3b3c 95a9 f63a daf4 2fbe
00000080: 69e3 24be b157 eebd 475a 233b 4acf 073e
00000090: 78fd 753d 2622 d43d f016 633d 4331 75bd
000000a0: 2ce1 e6bd 35c0 a03c 04bd 013e 5db4 dbbd
000000b0: eee9 e7bd 34cf f4bd e550 813c b8d1 c9bc
000000c0: 98e1 523d 055d b0bc 28af 8dbd 45ba f6bb
000000d0: b202 09be 0534 ea3d 3263 6c3d e2ca 0ebc
000000e0: b724 f1bd 21ec 44be 99f9 0cbd 79ad 5f39
000000f0: 1d34 3a3e 0b35 debd b651 03be 21b0 e2bd
00000100: 2d48 7f3d d9c0 1dbe 6a17 87bd d7cd 61bd
00000110: 3924 d1bd 1498 613a 44eb 213e 4931 93be
00000120: 7e8c 8abc d8e8 f3bc 1e28 2bbd 85ce 42be
00000130: 8f3d 16be 2612 ffbd 0b41 74bc 9f3b 03bd
00000140: f048 aebd 35b6 c4bd 4d60 0bbd 3ae0 bbbb
00000150: d1af 973e fb35 023e ec0d 8bbe e8d8 073d
00000160: 822d f8bc 2e45 3f3e 49ce a1bd 42a3 2dbd
00000170: 06e7 043e 4017 4dbe d7d9 73bd 193a 18be
00000180: 99c8 603d 5944 e3bd 3b5c a13d be04 af3d
00000190: 4d92 e7bd 28dc f83d 0e72 81bd 0502 3b3e
000001a0: 9785 5b3d 50f1 b73d df77 8e3e a7ff 1dbd
000001b0: ef41 2fbd 795e b73d f0c8 9e3d b738 a33d
000001c0: 785e d5bd c25c 303d 219c c13d e775 0d3d
000001d0: 8859 c9bd d01c 113e bbd6 153e 858a 563d
000001e0: 73a9 593d 333e f1bb 3cdd 2abe 24cb 28be
000001f0: 56c2 0fbe 0e0b 08bb 7873 a8bc 9f68 443d
00000200: b507 efbd 4854 d93c d2a5 03be c2c6 a7bd
00000210: 53a9 ec39 cdd3 c53d ac9b 9fbc 53e5 70bd
00000220: 79b7 6dbc 93f1 55bd b6b5 6ebd be8b 37bd
00000230: 4560 023d e8ec 43bc 44be 103c 28e2 b33d
00000240: c67d 0ebd b1b2 bebc 7d9b dbbd 8584 84bd
00000250: 4753 c5bd e2c3 7e3d 6cc2 15be a8fd 13bd
00000260: 22d6 c9bd b314 553d 93da 493c e8ba 1c3e
00000270: 499f 183d f27f a83d d57f 92bd df08 a0bd
00000280: c343 a2bd 8edc 88bd b34f 043e 1e6b 6ebd
00000290: 1645 40bd 061a 2abc 18d0 cc3d 20e6 18be
000002a0: 11da 33bd 5899 523d feb4 533d 4740 a2bd
000002b0: 802c 9cbd a7b1 49bc f5bc 4dbd a725 583d
000002c0: 1c01 a1bd 264f 1ebe 87a7 bdbc 110d 8fbd
000002d0: b7a3 363d 887a 51ba ecbd 05bc d5e4 033d
000002e0: 6a17 953d 3f22 85bd 74dd 5cbd 7466 a23c
000002f0: 1d55 c73c e494 853d 62e2 8c3d 2ab3 35be
00000300: bf57 0cbe 8cb3 aabd d917 7d3c 7a28 e4bc
00000310: 763d cdbd 6f81 15bd 2741 9fbd 41fd cabc
00000320: c738 a43c a9c2 723d aecb dfbb cc08 01bd
00000330: c5b3 c83d 8b4a 623d cf2a 98bd 8fae 923c
00000340: 4201 dcbd e9b4 823a 188a a5bd 211f 0ebd
00000350: 5280 a23b 87b0 86bd 78e2 26bc eee0 0abd
00000360: 6d7f e93d d9c5 70bd 4ddc 02bd 7696 d2bd
00000370: 153c 5bbd 05e4 73bd b8e3 baba ac7f 803d
00000380: ca3f 71bd 268d 0c3d 27a1 1d3e 0fd4 d23c
00000390: 473f 273d 0c46 df3d 4bd0 b93d 9f80 0a3e
000003a0: ab6d 63bd a4ec 8e3d fa4a 7dbd 8662 b73d
000003b0: a7de 24bd 5a8f 0c3d 4cbc a3bc db6e 49bd
000003c0: c558 7fbc 82bb 8dbc b3bd d03b 3eef ce3d
000003d0: f11b e13d 4621 893d 16bc b2bc 5e50 19bd
000003e0: 1bcf 12bd ea88 c33d dfd9 293d b48e 8a3b
000003f0: a12a a13d f276 053d 6bfb dabd 70c0 f63d

fc_model.2.bias f4 [84]
-0.027647348 0.029242909 -0.050846644 -0.06189364 -0.047607478 0.014994781 -0.046336457 -0.044954665
0.06940568 0.030236803 -0.054076727 -0.031967 0.0036313275 -0.05930649 0.018369496 -0.064772725
-0.08571847 -0.02825386 0.015917009 -0.0597132 0.04496353 -0.029790359 -0.0387167 0.0508339
0.08434132 0.043744292 0.040546376 -0.058975197 0.022393476 -0.03538638 -0.05553147 -0.03857234
0.06388649 0.059146762 -0.087792955 -0.06863694 -0.07860318 -0.07036827 -0.053297073 0.08162472
-0.023866747 0.025567682 -0.0111523075 -0.055548474 -0.05954426 -0.009015935 0.036118772 -0.03590215
0.06424774 -0.031744227 -0.038477577 -0.020633634 0.029227555 0.047983106 0.008730399 -0.016037988
-0.057263397 0.04907522 -0.08493098 -0.026198952 -0.04545481 0.08332579 -0.05407438 0.0014232615
0.029968984 -0.08272203 -0.03453547 -0.049417797 -0.07444923 0.06656067 0.02432637 0.041073382
0.083785266 -0.075178295 0.012782787 -0.07524684 -0.023752706 0.064277455 0.020174773 -0.06905732
0.04165757 -0.07834921 -0.08297562 -0.0014611766
00000000: b17c e2bc d38e ef3c 9244 50bd 2f84 7dbd
00000010: 0f00 43bd acac 753c 4ccb 3dbd 6222 38bd
00000020: 9124 8e3d 2cb3 f73c 8f7f 5dbd d4ef 02bd
00000030: 91fb 6d3b 5deb 72bd a07b 963c 90a7 84bd
00000040: 2a8d afbd a474 e7bc 6364 823c d495 74bd
00000050: ae2b 383d e90a f4bc 6795 1ebd 3537 503d
00000060: 24bb ac3d 372d 333d f513 263d fa8f 71bd
00000070: 8672 b73c 4ff1 10bd f774 63bd 08fe 1dbd
00000080: ecd6 823d e043 723d cbcc b3bd 8691 8cbd
00000090: b4fa a0bd 3d1d 90bd 084e 5abd dc2a a73d
000000a0: 3284 c3bc 5173 d13c 2bb8 36bc cc86 63bd
000000b0: afe4 73bd 92b7 13bc 47f1 133d 220e 13bd
000000c0: 5294 833d 3c06 02bd aa9a 1dbd de07 a9bc
000000d0: a06e ef3c ef89 443d f309 0f3c 1962 83bc
000000e0: 068d 6abd 1903 493d 4bf0 adbd 2f9f d6bc
000000f0: d32e 3abd b6a6 aa3d 197d 5dbd bb8c ba3a
00000100: 8481 f53c 2b6a a9bd 1175 0dbd 516a 4abd
00000110: d778 98bd f650 883d 1848 c73c 903c 283d
00000120: 9c97 ab3d 14f7 99bd e56e 513c 041b 9abd
00000130: 0995 c2bc e6a3 833d 9145 a53c ed6d 8dbd
00000140: 21a1 2a3d 8d75 a0bd 1fef a9bd f384 bfba

fc_model.4.weight f4 [1, 84]
-0.12168385 -0.09331819 0.1569239 -0.12755701 0.15572958 0.18544492 -0.07218378 0.18620709
-0.061871257 -0.2209861 0.104328945 0.13947733 -0.16324441 -0.15145673 -0.17498101 0.13032888
0.15050204 -0.1231399 0.17213516 -0.19373237 -0.13670832 -0.16295406 -0.09919021 0.14330372
-0.13707837 -0.1790245 -0.16329932 -0.14395465 0.18378653 -0.1103875 0.16592118 0.19843167
-0.23694359 -0.07227896 -0.30025682 -0.12626976 -0.17408177 0.17703262 -0.112717554 0.22085445
-0.1918539 0.1063827 0.11084307 0.09064345 0.27634877 -0.18578917 -0.1391366 -0.15064408
-0.18671428 0.14818552 -0.18837732 0.17894065 -0.1287212 -0.15290172 0.16482674 -0.27781028
0.15681414 0.15160981 -0.23433354 0.24983983 0.18549319 -0.13955182 0.18516067 -0.17804733
0.07854189 -0.1692945 0.2253446 0.07362986 0.18074858 -0.12488335 -0.115700275 -0.18227461
0.1678659 -0.12020455 -0.16662142 -0.16509518 0.16484514 -0.14699902 0.085827135 0.14737092
-0.10946468 0.23223963 0.17859077 0.18924727
00000000: 6235 f9bd 9b1d bfbd a9b0 203e 4e9e 02be
00000010: 9377 1f3e 46e5 3d3e 17d5 93bd 12ad 3e3e
00000020: b76c 7dbd 2e4a 62be 6aaa d53d 25d3 0e3e
00000030: 8b29 27be 7917 1bbe 392e 33be ef74 053e
00000040: 351d 1a3e c630 fcbd 3344 303e c761 46be
00000050: 44fd 0bbe 6edd 26be 3d24 cbbd 36be 123e
00000060: 465e 0cbe 3352 37be f037 27be d968 13be
00000070: 8932 3c3e d712 e2bd 3ee7 293e ac31 4b3e
00000080: 57a1 72be fe06 94bd 43bb 99be dc4c 01be
00000090: 7e42 32be 0a48 353e 76d8 e6bd ab27 623e
000000a0: 5975 44be 2cdf d93d b101 e33d 46a3 b93d
000000b0: 967d 8d3e 843f 3ebe d379 0ebe 7142 1abe
000000c0: 0732 3fbe f2bd 173e fce5 40be 383c 373e
000000d0: 7ecf 03be 4592 1cbe 57c8 283e 263d 8ebe
000000e0: e393 203e 9a3f 1b3e 22f5 6fbe 03d6 7f3e
000000f0: edf1 3d3e ace6 0ebe c29a 3d3e 0a52 36be
00000100: 92da a03d 8a5b 2dbe bcc0 663e 41cb 963d
00000110: 2816 393e d8c2 ffbd 44f4 ecbd 32a6 3abe
00000120: 0ae5 2b3e ce2d f6bd ce9e 2abe b60e 29be
00000130: 2acd 283e e986 16be 23c6 af3d 67e8 163e
00000140: 052f e0bd 3ad0 6d3e 80e0 363e 09ca 413e
