BrAInX/model_state_dict1.pth (torch, 179972 bytes, 9 tensors)

cnn_model.0.weight f4 [6, 3, 5, 5]
-0.041173004 -0.109796226 -0.06824281 0.09243641 -0.012700451 0.084594525 -0.035924677 0.04178402
0.04268034 0.10059271 -0.023710622 -0.046774786 0.02401166 0.011298168 -0.08762329 0.051858556
-0.076944724 -0.039761797 -0.07861542 0.1018445 -0.030142292 -0.020983046 0.06548529 -0.07153524
0.006226258 -0.013645972 0.09574851 0.0121133495 0.10710068 -0.058395207 -0.012828019 0.07753891
0.007907063 0.07676823 0.051807407 -0.08588402 0.093522966 0.07649487 0.11021102 0.032484557
-0.10169917 0.031213926 -0.0033963448 0.10289454 0.06595539 -0.10253951 -0.06884792 -0.052042276
-0.010250885 0.015390223 -0.08682921 0.004329471 0.06766924 0.12740701 -0.031738598 -0.0415533
0.08326179 -0.04632941 -0.037161138 0.006286468 -0.028365934 0.069290936 0.1159251 -0.057365097
-0.01128827 0.08220793 0.11459976 -0.007923732 0.11600435 0.023738774 0.043901682 0.11406337
0.029258627 0.013908581 0.081089534 -0.02468541 -0.017358046 -0.10750611 -0.089203924 -0.014023395
0.091088064 0.07520392 0.07832024 -0.07793173 0.093479976 0.052889753 0.08548544 -0.02467928
0.062166054 -0.096098155 -0.016460974 0.0502132 -0.03898267 0.0032020798 -0.03654135 -0.052784488
0.0862604 -0.10054681 0.057407495 -0.10737722 -0.0495141 -0.027230317 -0.032221343 -0.07915405
0.10601302 -0.046019442 0.029389232 -0.009314814 0.047956333 -0.051165354 0.09437562 -0.06683842
-0.09668274 -0.09670427 0.007748184 0.05840982 0.009418398 0.036506694 0.080796115 0.06625903
0.07133994 0.04911468 0.09604648 0.02326456 0.04977887 -0.09193305 0.081691064 0.06211294
0.059022833 0.039847843 0.045850568 -0.00504417 0.041452117 -0.08152957 -0.049254034 -0.030158874
0.09807353 0.07707513 0.004498354 0.07099035 0.060855225 0.07377176 0.05481637 0.04602979
-0.0071763326 -0.06595128 -0.10859111 -0.03714374 -0.025564866 0.07313974 0.09444637 0.09036066
0.057105046 0.017358288 0.021060357 0.056784816 0.099271536 -0.09160176 -0.0027444265 -0.023454059
-0.07916295 0.027767584 0.032852802 0.07675776 0.02737011 -0.04469336 0.0017453185 0.08816102
0.035268895 0.08344694 -0.10380301 0.029153408 -0.06902016 -0.09030052 0.102274574 0.09435539
0.048674587 0.104007 0.004302253 -0.09984271 -0.061467916 -0.035794895 0.052865345 -0.09141208
-0.10465495 0.00823217 0.09997153 0.063019775 -0.08923451 0.09163352 0.055904757 0.1035924
0.00026495574 -0.07610242 -0.003931092 -0.007999467 0.11160692 -0.04554053 -0.02103284 0.09537333
-0.11142359 0.003329184 -0.0672183 -0.01272594 0.010473048 -0.020762246 -0.032908652 -0.095115684
-0.042787123 0.03988099 -0.0701515 0.08037573 -0.01851068 -0.10239381 0.0016653911 -0.048039544
0.06906256 -0.015090541 0.0056766053 -0.011853871 -0.09083357 -0.07164381 0.087995455 -0.070974946
-0.09485048 -0.046616517 0.057793006 0.048086833 -0.10004441 -0.09203552 -0.015536446 0.10231036
0.10848326 -0.056285337 0.009603672 0.0072529097 -0.09360744 -0.09575194 -0.0954762 -0.013775689
0.0886342 -0.087295204 -0.10037951 0.099348456 -0.018596116 0.05473057 -0.046711016 -0.10734904
0.11599821 0.0045825657 0.02067981 0.08810485 -0.009226701 0.055542707 0.059011556 0.0019468428
00000000: 06a5 28bd d8dc e0bd e3c2 8bbd 4d4f bd3d
00000010: 8d15 50bc e53f ad3d c125 13bd b825 2b3d
00000020: 95d1 2e3d 8d03 ce3d c73c c2bc eb96 3fbd
00000030: 1ab4 c43c f41b 393c d773 b3bd a369 543d
00000040: 3295 9dbd 44dd 22bd 1f01 a1bd d993 d03d
00000050: f8ec f6bc a3e4 abbc 271d 863d 1181 92bd
00000060: a305 cc3b 5b93 5fbc cb17 c43d 1277 463c
00000070: 9a57 db3d d02f 6fbd 9d2c 52bc b8cc 9e3d
00000080: a08c 013c a938 9d3d 0134 543d f6e3 afbd
00000090: f888 bf3d 58a9 9c3d 51b6 e13d 870e 053d
000000a0: a847 d0bd 59b4 ff3c 3695 5ebb 5fba d23d
000000b0: 9f13 873d 3c00 d2bd 2300 8dbd 482a 55bd
000000c0: 54f3 27bc 4627 7c3c 83d3 b1bd 3cde 8d3b
000000d0: 2c96 8a3d fc76 023e 5500 02bd cb33 2abd
000000e0: 2885 aa3d e8c3 3dbd 4736 18bd b7fe cd3b
000000f0: ad5f e8bc 68e8 8d3d 246a ed3d aaf7 6abd
00000100: 70f2 38bc a25c a83d 47b3 ea3d 8ad2 01bc
00000110: b093 ed3d d177 c23c 40d2 333d 0e9a e93d
00000120: caaf ef3c d1e0 633c 4512 a63d 0f39 cabc
00000130: 7632 8ebc 2a2c dcbd 8cb0 b6bd 62c2 65bc
00000140: 618c ba3d 8304 9a3d 5d66 a03d ac9a 9fbd
00000150: 6e72 bf3d eda2 583d fe12 af3d 342c cabc
00000160: d5a1 7e3d 1ccf c4bd 2ad9 86bc 5bac 4d3d
00000170: 4bac 1fbd fcd9 513b 62ac 15bd 8c34 58bd
00000180: 4ba9 b03d 7ceb cdbd 1f24 6b3d 97e8 dbbd
00000190: 4ccf 4abd 1d12 dfbc 87fa 03bd 851b a2bd
000001a0: 5b1d d93d e27e 3cbd b0c1 f03c 299d 18bc
000001b0: dc6d 443d c392 51bd 0148 c13d 95e2 88bd
000001c0: 9a01 c6bd e30c c6bd 7ae4 fd3b 233f 6f3d
000001d0: a04f 1a3c 0b88 153d 6f78 a53d d0b2 873d
000001e0: ad1a 923d 7a2c 493d 04b4 c43d 5295 be3c
000001f0: eee4 4b3d 6547 bcbd a54d a73d 236a 7e3d
00000200: edc1 713d 7e37 233d cecd 3b3d 9149 a5bb
00000210: b2c9 293d faf8 a6bd 99be 49bd be0f f7bc
00000220: c6da c83d 91d9 9d3d ee66 933b 6363 913d
00000230: 5443 793d a615 973d 2187 603d bc89 3c3d
00000240: 7127 ebbb 7711 87bd 0465 debd 0924 18bd
00000250: 696d d1bc 4aca 953d 196d c13d 020f b93d
00000260: fbe6 693d f832 8e3c c586 ac3c 3297 683d
00000270: e04e cb3d b499 bbbd d6db 33bb ba22 c0bc
00000280: 2f20 a2bd d878 e33c a990 063d 2c33 9d3d
00000290: 4837 e03c 6210 37bd 2cc3 e43a c48d b43d
000002a0: 1e76 103d 3be6 aa3d ac96 d4bd 21d3 ee3c
000002b0: 715a 8dbd 7bef b8bd 5575 d13d 663d c13d
000002c0: 015f 473d 9f01 d53d eaf9 8c3b 567a ccbd
000002d0: c8c5 7bbd ab9d 12bd 5589 583d 4236 bbbd
000002e0: 5655 d6bd 39e0 063c e0bd cc3d 8310 813d
000002f0: 95c0 b6bd 5baa bb3d 63fc 643d 4128 d43d
00000300: c2e9 8a39 96db 9bbd 64d0 80bb 3210 03bc
00000310: 2b92 e43d b588 3abd 104d acbc 1853 c33d
00000320: 0d32 e4bd 702e 5a3b c0a9 89bd 7680 50bc
00000330: 2697 2b3c 9615 aabc 39cb 06bd 03cc c2bd
00000340: 8d41 2fbd 405a 233d 97ab 8fbd 089c a43d
00000350: b6a3 97bc d9b3 d1bd 4149 da3a 1dc5 44bd
00000360: ac70 8d3d 513e 77bc d102 ba3b bd36 42bc
00000370: f306 babd fdb9 92bd f636 b43d 505b 91bd
00000380: f840 c2bd f6f0 3ebd 5cb8 6c3d b3f6 443d
00000390: 15e4 ccbd 1e7d bcbd 948c 7ebc 1888 d13d
000003a0: 792c de3d 748b 66bd b858 1d3c d1a9 ed3b
000003b0: 42b5 bfbd 9819 c4bd 0789 c3bd 6db3 61bc
000003c0: d985 b53d d4c7 b2bd c693 cdbd 3477 cb3d
000003d0: e256 98bc 2a2d 603d 0d54 3fbd d0d9 dbbd
000003e0: 7890 ed3d 5929 963b b468 a93c 5170 b43d
000003f0: 972b 17bc c080 633d 1ab6 713d 342d ff3a

cnn_model.0.bias f4 [6]
0.012350856 0.0723618 -0.118428566 -0.07283909 0.01867595 -0.069107674
00000000: 3f5b 4a3c 6c32 943d ad8a f2bd a92c 95bd
00000010: 4efe 983c 5388 8dbd

cnn_model.3.weight f4 [16, 6, 5, 5]
0.03598739 0.06353552 -0.010909362 0.014179507 -0.05634891 -0.03884311 -0.040381577 0.07086627
0.030702986 -0.02359198 -0.019243268 -0.0049230736 0.012532462 0.054510944 -0.05627928 0.051713124
-0.0058707064 -0.043986548 -0.05792265 -0.017855167 -0.009273081 0.054982238 -0.041777883 -0.016747173
-0.039753877 0.069071874 0.03979209 -0.08934768 -0.01613358 -0.0079175 0.07735946 -0.015486037
0.0031303144 -0.0224733 0.048739698 -0.05762005 0.056914855 0.006095353 0.07962171 0.013846758
0.0838161 -0.0034214049 -0.04621768 -0.066299595 -0.050673496 0.012674448 -0.036248337 -0.0888826
0.05480088 -0.04900266 0.01956501 -0.0065030106 -0.033052195 0.07380315 0.021130584 -0.050296552
0.050184116 -0.045063455 -0.03499722 0.08104313 -0.013027541 0.055226002 -0.043622844 -0.016497899
0.0050063203 -0.025085913 -0.019801619 -0.0694711 -0.0053434395 0.035052136 0.013015797 0.053389996
-0.0905127 0.015700022 -0.06350363 -0.033840615 0.05873839 -0.05538403 -0.06456504 0.036397874
0.087582 0.081626825 0.04470382 0.039297715 0.056507885 0.07798701 0.06983208 -0.043707173
0.040351134 0.0755046 0.07745249 0.090336874 0.07658724 -0.0003983981 -0.017435836 0.024704563
0.11309125 -0.035468437 0.03920909 -0.00694905 -0.08478283 -0.086241275 -0.04507326 -0.0046148337
-0.019022891 -0.06610252 -0.031347927 0.021000199 0.028398583 -0.005447379 -0.009928617 -0.0505867
-0.020200277 -0.053900555 -0.068479225 0.0101390565 0.023041504 -0.05284362 0.061348516 -0.010955514
-0.07086888 -0.014176859 -0.07624379 0.018227996 -0.017119933 -0.07844862 -0.059233647 -0.012699597
-0.057466384 -0.081758395 -0.00894562 0.0046660807 -0.06533051 0.014281737 0.069144614 0.007828113
0.009208398 0.00037120708 0.056477085 0.049178872 0.017602867 -0.05168911 -0.054412328 -0.04435629
0.03086949 0.04148194 -0.014643544 -0.06934788 -0.014593972 0.072665796 0.098403856 0.0071263937
-0.03602022 0.020332187 0.010872412 0.014519233 0.06688214 0.06748439 0.01032321 -0.015936952
0.07962827 -0.069973335 -0.035139665 0.00048057467 -0.03781571 0.027132321 0.0421503 -0.010294899
0.08277805 0.08807736 0.08963241 -0.06341481 0.06391933 -0.055295307 0.073554404 -0.033486716
-0.07645912 0.029191347 -0.043508153 -0.05903517 0.02399485 -0.049292874 0.06682404 -0.032799482
-0.010848316 0.07816897 0.021990776 0.038001075 0.030689096 0.07944887 -0.0056351516 0.070256405
0.030277144 0.057458036 -0.03674839 -0.032002103 0.03108725 -0.090439565 0.013994577 0.018045353
-0.076937824 0.022318328 -0.078384966 0.050767306 0.10798247 0.023187086 0.005181511 -0.048586223
-0.033367638 -0.047987398 0.021251388 -0.019128388 -0.0588688 -0.064941466 0.07379006 -0.08678798
0.031879447 0.016420968 0.046778902 -0.031858508 -0.069197565 -0.04170179 -0.019716727 0.015626417
-0.0148650175 0.03385984 0.02124379 -0.012146855 0.06727401 -0.049865853 0.060689077 0.070462726
0.013272543 0.05610797 0.06613572 -0.050696228 -0.026046937 0.086083226 0.08105484 0.10463777
0.06810082 0.04659295 0.10269308 0.07526155 0.035623223 0.027257202 0.02543791 0.05798077
0.09733842 -0.028272346 -0.0118175065 -0.09586295 0.026112735 0.0069719716 0.056846384 -0.053842455
00000000: 8367 133d e91e 823d 2ebd 32bc 2a51 683c
00000010: 1dce 66bd f419 1fbd 2767 25bd 5622 913d
00000020: d484 fb3c f843 c1bc 0fa4 9dbc bc51 a1bb
00000030: f554 4d3c de46 5f3d 1a85 66bd 24d1 533d
00000040: 0e5f c0bb 3d2b 34bd 4d40 6dbd 0045 92bc
00000050: 1fee 17bc 0e35 613d 491f 2bbd 5e31 89bc
00000060: f6d4 22bd 8e75 8d3d 08fd 223d ebfb b6bd
00000070: 922a 84bc 67b8 01bc a36e 9e3d 26b9 7dbc
00000080: f625 4d3b ed19 b8bc 47a3 473d 0003 6cbd
00000090: 8d1f 693d 87bb c73b b510 a33d 83dd 623c
000000a0: c7a7 ab3d a639 60bb c04e 3dbd 15c8 87bd
000000b0: 038f 4fbd 7da8 4f3c 2379 14bd 1508 b6bd
000000c0: e376 603d 03b7 48bd cd46 a03c 3517 d5bb
000000d0: bd61 07bd 1b26 973d 0c1a ad3c c203 4ebd
000000e0: dc8d 4d3d 7594 38bd 3f59 0fbd f1f9 a53d
000000f0: 7871 55bc a934 623d dead 32bd 9a26 87bc
00000100: 0f0c a43b f980 cdbc 0137 a2bc dd46 8ebd
00000110: 0518 afbb d492 0f3d 3640 553c 78af 5a3d
00000120: b95e b9bd 559d 803c 310e 82bd 759c 0abd
00000130: ab97 703d 5dda 62bd ad3a 84bd f015 153d
00000140: 315e b33d f72b a73d 5a1b 373d a4f6 203d
00000150: d074 673d a7b7 9f3d 1f04 8f3d 4b06 33bd
00000160: 3b47 253d 28a2 9a3d 699f 9e3d 8a02 b93d
00000170: c5d9 9c3d 16e0 d0b9 99d5 8ebc 3961 ca3c
00000180: 639c e73d 5a47 11bd b699 203d dbb4 e3bb
00000190: 9fa2 adbd 449f b0bd bd9e 38bd 0838 97bb
000001a0: e5d5 9bbc c260 87bd af66 00bd 9c08 ac3c
000001b0: 25a4 e83c ed7f b2bb a3ab 22bc 0034 4fbd
000001c0: 0d7b a5bc d4c6 5cbd d63e 8cbd 491e 263c
000001d0: 89c1 bc3c 8d72 58bd 9548 7b3d c27e 33bc
000001e0: b423 91bd 0e46 68bc b425 9cbd e152 953c
000001f0: 1a3f 8cbc aca9 a0bd fb9e 72bd f811 50bc
00000200: df61 6bbd f270 a7bd a690 12bc ece5 983b
00000210: 01cc 85bd f2fd 693c b19b 8d3d 7c41 003c
00000220: d2de 163c 929e c239 8454 673d c96f 493d
00000230: e333 903c f6b7 53bd 76df 5ebd f1ae 35bd
00000240: 03e2 fc3c f7e8 293d 7aeb 6fbc 4306 8ebd
00000250: 8e1b 6fbc ced1 943d f687 c93d 8684 e93b
00000260: f089 13bd b08f a63c 3322 323c 14e2 6d3c
00000270: 81f9 883d 4235 8a3d ae22 293c 368e 82bc
00000280: 2514 a33d 2e4e 8fbd 9cee 0fbd a4f5 fb39
00000290: a5e4 1abd 9a44 de3c cba5 2c3d f0ab 28bc
000002a0: 8a87 a93d e761 b43d 3291 b73d a0df 81bd
000002b0: 23e8 823d 557d 62bd b1a3 963d 5e29 09bd
000002c0: 9996 9cbd b122 ef3c 9b35 32bd ddce 71bd
000002d0: d990 c43c 53e7 49bd 0bdb 883d c058 06bd
000002e0: 23bd 31bc 0e17 a03d 0026 b43c 04a7 1b3d
000002f0: b367 fb3c 17b6 a23d 14a7 b8bb 97e2 8f3d
00000300: c607 f83c 1e59 6b3d 7b85 16bd a314 03bd
00000310: b0aa fe3c 6138 b9bd 8349 653c d9d3 933c
00000320: 9491 9dbd edd4 b63c 4c88 a0bd 61f1 4f3d
00000330: ea25 dd3d d8f2 bd3c aac9 a93b 5902 47bd
00000340: 81ac 08bd 6f8e 44bd 6417 ae3c 23b3 9cbc
00000350: 6920 71bd 0800 85bd 3e1f 973d e5bd b1bd
00000360: 0694 023d 4485 863c 3c9b 3f3d 117e 02bd
00000370: 74b7 8dbd 7fcf 2abd f984 a1bc f902 803c
00000380: 678c 73bc 9eb0 0a3d 7507 ae3c 9a03 47bc
00000390: f5c6 893d 2340 4cbd 1c95 783d c34e 903d
000003a0: 1575 593c 79d1 653d 2a72 873d d9a6 4fbd
000003b0: 6360 d5bc 674c b03d 1400 a63d 544c d63d
000003c0: 7178 8b3d 40d8 3e3d c050 d23d ba22 9a3d
000003d0: a8e9 113d 7f4a df3c 2a63 d03c 3e7d 6d3d
000003e0: 5e59 c73d 689b e7bc 379e 41bc cb53 c4bd
000003f0: 60ea d53c 2375 e43b c1d7 683d e889 5cbd

cnn_model.3.bias f4 [16]
0.008462833 0.017609721 0.06600737 0.082170695 -0.048944246 -8.422245e-05 -0.033573005 -0.01930085
0.08509228 0.078258686 0.033732507 0.049100973 0.005741029 0.007840833 -0.012167866 -0.007898469
00000000: b2a7 0a3c 4342 903c df2e 873d 1c49 a83d
00000010: c379 48bd 95a0 b0b8 d983 09bd d11c 9ebc
00000020: dc44 ae3d 1746 a03d 192b 0a3d 1a1e 493d
00000030: 3e1f bc3b d676 003c bb5b 47bc 9568 01bc

fc_model.0.weight f4 [120, 256]
0.015296442 0.032960266 -0.02801441 -0.042387698 -0.010568699 -0.041131925 -0.04082754 0.011646265
0.0035253544 -0.020543206 0.00014322047 0.0013904092 0.0011603043 -0.011701263 0.0055208425 -0.022304693
-0.046648953 -0.014142996 -0.005042207 0.053558502 0.0053863497 0.06663278 0.07159792 -0.05489178
-0.027193313 0.045545533 0.02333832 0.066969424 -0.048251797 0.035444625 -0.045256816 0.042382285
0.0019188768 -0.01561566 -0.036418404 -0.05353665 -0.010171773 0.03843613 0.07153027 -0.012556927
-0.066816464 -0.016309913 0.003812038 -0.01294777 -0.005025671 0.053893715 -0.035549402 0.039277174
0.006509374 -0.08693041 -0.040075075 -0.016720064 -0.048051342 0.006975721 0.036262635 -0.005373107
-0.059089202 -0.004312825 0.0061606304 0.0067255124 0.044757523 0.009113252 -0.04412421 0.02532546
-0.05431907 0.021695817 -0.005595581 -0.035267707 -0.0035583978 0.060130917 -0.06881434 0.070757724
-0.015845908 -0.051828858 0.018529026 -0.044733968 -0.04799738 -0.023212094 0.006304017 0.037510145
0.024038576 0.0758559 -0.00055950816 -0.044037364 -0.025631744 -0.031127078 0.005671045 0.056767944
-0.043208692 0.015227582 0.020462189 -0.019100817 0.017672397 0.029110104 -0.044238485 -0.012603698
-0.02806927 0.030949946 0.053453166 0.053335644 -0.041709986 0.03411116 0.06509615 0.02327154
0.019499574 0.0033291166 -0.021564929 0.015118409 0.06393652 -0.022223044 -0.02259448 0.0130925225
0.018801805 0.008008388 -0.0218908 -0.033956442 -0.013683302 0.029293668 0.019274002 -0.049472228
0.035746574 -0.038790308 0.01919359 0.020720763 -0.017702475 0.005515938 -0.054605175 -0.04012995
-0.0012975378 -0.007555537 -0.035259586 -0.035829775 -0.038421802 -0.06605204 -0.0042949496 0.029680539
-0.011759621 0.04386873 -0.03216256 -0.040199257 -0.01647875 0.04459189 0.0068123564 0.04078798
0.0059203575 0.032639265 -0.002900615 -0.04232289 0.023225259 0.0225052 0.04670561 -0.053958613
0.003677649 -0.009444106 -0.063270465 -0.015463262 -0.07113384 -0.036616836 0.043116067 -0.030158836
0.045841333 -0.074896365 0.035702758 -0.01027531 -0.0003232546 0.04318593 -0.066087544 -0.035805665
-0.0063726357 -0.033284623 0.019094424 0.055468958 0.0063327206 0.039753806 -0.040420018 -0.0052273013
0.026594222 -0.022426901 -0.033722553 -0.043975815 -0.011385019 3.7075984e-05 -0.041885186 -0.033181135
0.020773688 -0.060924437 0.016057514 -0.054398894 -0.009854851 -0.04829135 -0.046544943 -0.052130982
-0.01715921 0.06293814 -0.038852386 0.014835428 -0.07901972 -0.0017297828 0.06686419 0.050556667
0.025550745 -0.05584818 0.065578036 0.07167801 -0.0018478433 0.03696919 0.045560494 0.0661357
0.05655183 0.008720418 -0.039141916 0.030925704 0.011157132 -0.06833413 -0.052525155 -0.02975607
0.015015801 0.035079077 0.090363845 0.002686974 -0.03501861 -0.035019744 -0.010675421 0.009007259
-0.002871554 0.05362243 0.05193291 -0.029294271 -0.064929366 0.019975685 -0.0557925 -0.027596083
0.05793958 -0.055506468 -0.04187977 -0.03004976 0.042683404 -0.025019515 -0.051492803 -0.051281013
0.05979503 -0.05406228 0.0010485284 -0.058424987 -0.0019786248 -0.010035825 0.0010136841 -0.046665937
-0.035106238 0.0080772275 -0.02396227 -0.015552079 0.026201902 0.023369703 -0.05706157 0.04123341
00000000: ee9d 7a3c 5801 073d 7a7e e5bc b99e 2dbd
00000010: 5628 2dbc f379 28bd c73a 27bd facf 3e3c
00000020: a209 673b 3a4a a8bc 742d 1639 643e b63a
00000030: 5a15 983a a7b6 3fbc 2fe8 b43b 55b8 b6bc
00000040: f912 3fbd 06b8 67bc 1939 a5bb 2960 5b3d
00000050: fa7f b03b c476 883d eea1 923d 34d6 60bd
00000060: 83c4 debc f48d 3a3d 0130 bf3c 4427 893d
00000070: ada3 45bd 622e 113d 365f 39bd 0c99 2d3d
00000080: d282 fb3a d3d8 7fbc 772b 15bd 3f49 5bbd
00000090: 82a7 26bc 346f 1d3d 767e 923d 92bb 4dbc
000000a0: 12d7 88bd 5e9c 85bc 63d3 793b e222 54bc
000000b0: 62ae a4bb a8bf 5c3d 409c 11bd 1ae1 203d
000000c0: 964c d53b 9208 b2bd c325 24bd 84f8 88bc
000000d0: 7cd1 44bd 9794 e43b 2188 143d e310 b0bb
000000e0: 8507 72bd 9952 8dbb 1ddf c93b b061 dc3b
000000f0: aa53 373d c04f 153c 96bb 34bd 5777 cf3c
00000100: ac7d 5ebd 6dbb b13c 235b b7bb df74 10bd
00000110: 0234 69bb d64b 763d 88ee 8cbd 6de9 903d
00000120: 47cf 81bc 7f4a 54bd 2fca 973c f73a 37bd
00000130: e798 44bd 4a27 bebc ed91 ce3b 3da4 193d
00000140: 8cec c43c 575a 9b3d f5ab 12ba 8660 34bd
00000150: aaf9 d1bc 37fe febc 2cd4 b93b 8185 683d
00000160: 99fb 30bd 1c7d 793c 52a0 a73c 5179 9cbc
00000170: b4c5 903c 5078 ee3c 6a33 35bd be7f 4ebc
00000180: 87f1 e5bc be8a fd3c b5f1 5a3d 7a76 5a3d
00000190: 17d8 2abd 25b8 0b3d 2151 853d f5a3 be3c
000001a0: 92bd 9f3c 4f2d 5a3b efa8 b0bc 34b3 773c
000001b0: 26f1 823d 1a0d b6bc 0f18 b9bc 0582 563c
000001c0: 3e06 9a3c 9d35 033c 5654 b3bc e915 0bbd
000001d0: ee2f 60bc 46f9 ef3c 83e4 9d3c 64a3 4abd
000001e0: 006b 123d 96e2 1ebd e03b 9d3c 97be a93c
000001f0: c804 91bc 0bbf b43b ada9 5fbd 4d5f 24bd
00000200: 2512 aaba 7094 f7bb 5b6c 10bd 3ec2 12bd
00000210: 2e60 1dbd 4b46 87bd a6bc 8cbb 9a24 f33c
00000220: 6dab 40bc b3af 333d e3bc 03bd faa7 24bd
00000230: 72fe 86bc fca5 363d 303a df3b 4c11 273d
00000240: 8fff c13b c0b0 053d 3f18 3ebb c45a 2dbd
00000250: e642 be3c d35c b83c 624e 3f3d b503 5dbd
00000260: b604 713b 74bb 1abc f293 81bd 9f59 7dbc
00000270: 9eae 91bd 89fb 15bd 799a 303d aa0f f7bc
00000280: 1fc4 3b3d 4463 99bd 0e3d 123d c659 28bc
00000290: 7f7a a9b9 bbe3 303d e858 87bd f6a8 12bd
000002a0: 8bd1 d0bb 7555 08bd e96b 9c3c 6b33 633d
000002b0: b682 cf3b e3d4 223d 768f 25bd c849 abbb
000002c0: 20dc d93c 9fb8 b7bc a920 0abd fc1f 34bd
000002d0: 3b88 3abc 0982 1b38 cd8f 2bbd f1e8 07bd
000002e0: 952d aa3c e78b 79bd 0c8b 833c 60d1 5ebd
000002f0: 3e76 21bc 27cd 45bd e9a5 3ebd 4c87 55bd
00000300: 7991 8cbc b6e5 803d ae23 1fbd 4c10 733c
00000310: 17d5 a1bd e1b9 e2ba 18f0 883d 8214 4f3d
00000320: cc4f d13c 10c1 64bd c74d 863d eccb 923d
00000330: 5533 f2ba 016d 173d a49d 3a3d 2772 873d
00000340: e4a2 673d 16e0 0e3c 4653 20bd e757 fd3c
00000350: 67cc 363c c4f2 8bbd 9e24 57bd 00c3 f3bc
00000360: d604 763c 14af 0f3d ae10 b93d f117 303b
00000370: ad6f 0fbd dd70 0fbd f6e7 2ebc 2f93 133c
00000380: af30 3cbb 31a3 5b3d 9ab7 543d 8afa efbc
00000390: b0f9 84bd 0ca4 a33c ad86 64bd 2e11 e2bc
000003a0: 0e52 6d3d c05a 63bd 1f8a 2bbd ea2a f6bc
000003b0: cbd4 2e3d baf5 ccbc 1eea 52bd 0a0c 52bd
000003c0: a2eb 743d 6970 5dbd c66e 893a 0a4f 6fbd
000003d0: d1ab 01bb 4d6d 24bc 98dd 843a c824 3fbd
000003e0: 8fcb 0fbd 5956 043c 864c c4bc 26ce 7ebc
000003f0: 5fa5 d63c d271 bf3c 65b9 69bd 5de4 283d

fc_model.0.bias f4 [120]
-0.05553297 -0.016495971 0.031874124 0.013826077 -0.017555024 0.046855036 0.010585992 0.0066883867
0.010401393 -0.02069883 0.029816939 -0.01544876 -0.027203806 -0.034940206 -0.03484026 0.04240278
0.043093156 -0.004517221 -0.02980592 0.050425574 0.055930655 0.04202536 -0.011552389 0.0031899053
0.011624619 0.022665197 -0.04856402 -0.041959345 0.015025998 0.029443866 0.030592011 -0.06749278
-0.040077403 -0.022875316 -0.014183481 0.063463025 0.04768612 0.029222809 -0.013438246 -0.012951213
0.048461832 -0.012439851 -0.0320213 0.015649987 -0.072761066 0.041908175 -0.026704378 0.05403459
-0.037632145 0.038730092 -0.039285354 0.04341398 -0.021619633 0.010882602 -0.057677902 -0.056865834
-0.02915029 -0.062710345 -0.013722322 -0.0153528135 -0.0066146506 -0.024328135 0.0068056425 0.054952532
0.046375167 0.012796479 0.058441147 -0.051916637 -0.009692462 -0.036849823 0.06043992 -0.04779415
-0.007213613 0.055741474 0.024729261 -0.027357168 0.02544009 0.0034330557 -0.05058015 0.05474372
0.044011414 -0.008465629 0.0052882987 0.010059255 -0.018343123 -0.060033873 -0.05397726 -0.00019562968
0.0442287 -0.021166783 -0.04431527 0.044255402 -0.030187711 -0.01621124 0.060735323 -0.032232225
0.035662897 -0.037470534 -0.021174043 0.052789617 -0.04258157 0.067354955 0.059530098 0.05429743
0.022808308 0.026875803 0.009834982 -0.0044155796 -0.05342092 0.032156736 -0.04870906 -0.04024985
-0.04892996 0.04355589 0.044146262 -0.04320054 0.023081841 -0.05859158 0.006704381 0.022173401
00000000: 8a76 63bd 8f22 87bc 718e 023d c586 623c
00000010: 8ecf 8fbc 11eb 3f3d de70 2d3c 412a db3b
00000020: 9b6a 2a3c 9890 a9bc a742 f43c cc1c 7dbc
00000030: 84da debc 761d 0fbd a9b4 0ebd 8aae 2d3d
00000040: 7382 303d 3205 94bb 8b2b f4bc 0c8b 4e3d
00000050: 8b17 653d c922 2c3d 3b46 3dbc bb0d 513b
00000060: 3075 3e3c 5dac b93c 11eb 46bd 90dd 2bbd
00000070: 9a2f 763c 4334 f13c 199c fa3c a839 8abd
00000080: 3428 24bd 0465 bbbc d561 68bc e7f8 813d
00000090: 8552 433d ac64 ef3c 172c 5cbc 5331 54bc
000000a0: ea7f 463d 84d0 4bbc c428 03bd 6734 803c
000000b0: c103 95bd e8a7 2b3d 24c3 dabc 6053 5d3d
000000c0: 2a24 1abd 72a3 1e3d aee9 20bd dcd2 313d
000000d0: a81b b1bc f14c 323c aa3f 6cbd 26ec 68bd
000000e0: 97cc eebc 486e 80bd 97d3 60bc 5e8a 7bbc
000000f0: b6bf d8bb cc4b c7bc de01 df3b e815 613d
00000100: e3f3 3d3d 53a8 513c fc5f 6f3d 8aa6 54bd
00000110: 22cd 1ebc d7ef 16bd d98f 773d ccc3 43bd
00000120: 2c60 ecbb 2c51 643d 0595 ca3c 241c e0bc
00000130: bc67 d03c 1efd 603b 222d 4fbd f33a 603d
00000140: 5045 343d 6cb3 0abc 7749 ad3b 93cf 243c
00000150: 5144 96bc 14e6 75bd 4217 5dbd f121 4db9
00000160: 2729 353d f665 adbc ee83 35bd 2745 353d
00000170: 384c f7bc 6fcd 84bc 9ac5 783d f005 04bd
00000180: 4213 123d b47a 19bd 3075 adbc ed39 583d
00000190: 036a 2ebd 65f1 893d d5d5 733d fb66 5e3d
000001a0: 7dd8 ba3c a52a dc3c e822 213c 91b0 90bb
000001b0: e5cf 5abd c8b6 033d 2783 47bd 07dd 24bd
000001c0: c86a 48bd a967 323d b6d2 343d 0df3 30bd
000001d0: 2116 bd3c b9fd 6fbd 6db0 db3b fea4 b53c

fc_model.2.weight f4 [84, 120]
-0.1143662 0.027071405 -0.0646198 0.10442256 -0.0080816485 -0.04212793 -0.05578986 -0.06502755
-0.025731249 -0.058904495 0.05935684 -0.07557098 -0.06802541 -0.0885056 0.008162356 0.11249066
0.007688798 0.014879442 -0.046490874 -0.0068721906 0.020986948 0.0963898 -0.08819631 0.10141707
0.05108494 0.08918842 0.041636348 0.06444629 -0.018632643 -0.011959969 0.1041615 -0.04215698
-0.052455213 0.06694833 -0.04283969 -0.04915076 -0.048274446 -0.085016675 -0.00038961304 -0.04194747
0.016693546 0.046254374 0.008864735 -0.06416687 0.032648955 -0.05834753 0.021988966 -0.02777857
-0.10476215 -0.04446402 0.04722681 -0.0698837 0.046726197 -0.07944054 -0.028613923 -0.012443954
-0.024982987 0.022370415 -0.088553116 0.0044277953 0.09536964 0.033688582 -0.015094104 -0.016910844
0.027958049 0.09936102 0.0007194064 -0.057085652 -0.029743576 0.0325286 0.08796797 0.016605398
-0.0057983524 -0.05316675 -0.079918124 0.088663146 0.038331598 0.06084223 -0.04956598 0.04514436
0.016963203 -0.0804469 -0.12196401 0.011954311 -0.10280289 -0.08451377 0.05705172 0.051796347
0.08288561 0.0049323835 -0.03782242 -0.048699636 -0.042317435 -0.046348553 0.068752296 0.04047104
-0.08653773 -0.04051348 -0.014462378 -0.03585993 0.11581554 0.08676974 0.07810142 0.025786873
0.021038834 -0.056330178 -0.053196564 0.0037329607 -0.05706978 -0.033724327 -0.01635887 0.06922044
-0.06870157 -0.047416106 -0.008777539 -0.04007079 0.10018657 0.0095734475 -0.06205473 0.100862585
-0.044794865 0.05044866 -0.06324397 0.07385064 -0.0476585 0.027017217 -0.010032068 -0.055039994
0.030744305 0.03528342 0.013982711 0.008793078 -0.030837415 -0.025498258 -0.03932473 0.0807842
-0.07122981 0.010167436 0.027047275 0.043131564 0.07907998 0.051965993 -0.042157125 0.0584729
-0.052324302 0.10679459 -0.10605927 -0.018654218 -0.04902655 0.03178536 0.072701335 -0.10030668
0.0015655804 0.01486747 0.04463641 0.021580366 0.031640768 -0.094834425 0.0600723 0.049329124
-0.0073664836 0.09753545 0.057163388 -0.06479198 -0.058824044 -0.000794878 0.09265166 -0.10520544
-0.06091118 -0.021585835 0.04242455 0.04625445 -0.024257468 0.074580766 0.093281016 0.052870285
0.022219542 -0.060654733 -0.10854354 -0.08906334 0.035303205 0.055668633 0.06577056 0.043811828
-0.022137186 -0.036536813 0.032424595 -0.016879179 -0.040263586 0.010801186 0.05927908 0.10852511
-0.06988087 0.09629948 -0.0016213014 0.0043488154 -0.07972219 -0.014415583 -0.04418768 -0.011810004
0.052146934 -0.040328454 0.03896436 -0.028011335 -0.077026725 -0.041278146 -0.10952182 -0.11346742
-0.067561224 0.09287425 0.025864728 -0.016176052 -0.0064758467 0.07409651 -0.04366731 -0.07359277
-0.07026937 -0.06587636 -0.05811919 0.0035383736 0.037904207 0.0778536 -0.057658784 -0.04672633
0.053114507 0.12187664 0.051697183 0.010407983 -0.02156764 -0.044681117 -0.059475522 0.027372994
-0.10032197 -0.02526085 -0.08315973 0.00044758862 0.020891398 -0.016292587 0.015958162 0.117385104
0.02528991 -0.058349945 0.004560684 0.10398474 -0.014857356 -0.067667075 -0.036159158 -0.10978526
0.01905319 -0.02528039 -0.07687216 -0.013655363 -0.013378496 -0.0079257805 -0.08572501 0.069298245
00000000: d438 eabd dac4 dd3c 6357 84bd 7fdb d53d
00000010: e468 04bc 568e 2cbd e983 64bd 2a2d 85bd
00000020: 57ca d2bc d745 71bd 2820 733d f5c4 9abd
00000030: e850 8bbd 6d42 b5bd 67bb 053c 8161 e63d
00000040: 50f2 fb3b e7c8 733c 376d 3ebd 1d30 e1bb
00000050: d2ec ab3c 0468 c53d 44a0 b4bd c1b3 cf3d
00000060: 713e 513d 6ba8 b63d e08a 2a3d 6bfc 833d
00000070: 7ca3 98bc bff3 43bc a052 d53d ccac 2cbd
00000080: 47db 56bd 351c 893d ac78 2fbd 4f52 49bd
00000090: 6dbb 45bd 391d aebd fa44 ccb9 1cd1 2bbd
000000a0: e7c0 883c 3a75 3d3d 653d 113c ec69 83bd
000000b0: e9ba 053d d2fd 6ebd 3422 b43c e28f e3bc
000000c0: 8a8d d6bd e71f 36bd e670 413d 2f1f 8fbd
000000d0: f863 3f3d b9b1 a2bd bf67 eabc bae1 4bbc
000000e0: 1fa9 ccbc 2942 b73c 565b b5bd 0a17 913b
000000f0: 2851 c33d 0afd 093d 434d 77bc 9c88 8abc
00000100: 4708 e53c ca7d cb3d 8c96 3c3a a5d2 69bd
00000110: cda8 f3bc b63c 053d 8d28 b43d 0b08 883c
00000120: 1b00 bebb 61c5 59bd 1dac a3bd 0695 b53d
00000130: 9801 1d3d b435 793d b205 4bbd 4be9 383d
00000140: 6af6 8a3c 58c1 a4bd 44c8 f9bd 04dc 433c
00000150: 528a d2bd 8e15 adbd 10af 693d 6828 543d
00000160: eebf a93d d59f a13b afeb 1abd 4579 47bd
00000170: 0c55 2dbd fbd7 3dbd 01ce 8c3d f6c4 253d
00000180: b23a b1bd 76f1 25bd 9cf3 6cbc dde1 12bd
00000190: b330 ed3d 55b4 b13d a3f3 9f3d fe3e d33c
000001a0: a259 ac3c 79ba 66bd a4e4 59bd b0a4 743b
000001b0: 00c2 69bd 8522 0abd 0903 86bc 72c3 8d3d
000001c0: 69b3 8cbd 6437 42bd abcf 0fbc 4521 24bd
000001d0: 9e2e cd3d f3d9 1c3c 1a2d 7ebd 0b91 ce3d
000001e0: d27a 37bd 41a3 4e3d 0e86 81bd 013f 973d
000001f0: 8f35 43bd 3653 dd3c 8b5d 24bc 9e71 61bd
00000200: 7bdb fb3c 5985 103d be17 653c d810 103c
00000210: bf9e fcbc b9e1 d0bc f812 21bd 3072 a53d
00000220: efe0 91bd 5195 263c 3f92 dd3c b9aa 303d
00000230: aff4 a13d 4bda 543d f3ac 2cbd 4881 6f3d
00000240: 0252 56bd 1fb7 da3d 9a35 d9bd bbd0 98bc
00000250: 10d0 48bd 5e31 023d 70e4 943d 976d cdbd
00000260: 2934 cd3a b096 733c abd4 363d 4fc9 b03c
00000270: c099 013d 8d38 c2bd 5f0e 763d 560d 4a3d
00000280: 8b62 f1bb aac0 c73d 2824 6a3d a8b1 84bd
00000290: 7bf1 70bd 5c5f 50ba 27c0 bd3d f375 d7bd
000002a0: 007e 79bd c7d4 b0bc 5dc5 2d3d 4e75 3d3d
000002b0: 99b7 c6bc cdbd 983d 1e0a bf3d 838e 583d
000002c0: c205 b63c 1971 78bd 134c debd d766 b6bd
000002d0: 189a 103d cb04 643d b7b2 863d 0874 333d
000002e0: 0b59 b5bc a0a7 15bd a7cf 043d 3446 8abc
000002f0: 6eeb 24bd 75f7 303c 9fce 723d 6a42 de3d
00000300: b41d 8fbd a938 c53d d981 d4ba 8280 8e3b
00000310: 6345 a3bd 562f 6cbc 24fe 34bd bf7e 41bc
00000320: 0698 553d 732f 25bd 1899 1f3d 0778 e5bc
00000330: 30c0 9dbd 4613 29bd fa4c e0bd 9b61 e8bd
00000340: 8a5d 8abd db34 be3d 44e2 d33c a483 84bc
00000350: 5733 d4bb e9bf 973d 7edc 32bd ceb7 96bd
00000360: 63e9 8fbd 2fea 86bd 630e 6ebd 0fe4 673b
00000370: 7141 1b3d b571 9f3d 9e2b 6cbd 1c64 3fbd
00000380: 998e 593d 769a f93d 6dc0 533d 3f86 2a3c
00000390: 9fae b0bc 8c03 37bd 9b9c 73bd 543d e03c
000003a0: 9b75 cdbd d8ef cebc a64f aabd 54aa ea39
000003b0: 7024 ab3c 0878 85bc b1ba 823c 9a67 f03d
000003c0: c92c cf3c 5a00 6fbd ca71 953b f4f5 d43d
000003d0: 456c 73bc 0995 8abd a01b 14bd 18d7 e0bd
000003e0: 6f15 9c3c d218 cfbc 276f 9dbd beba 5fbc
000003f0: 7b31 5bbc 22db 01bc 9890 afbd 3dec 8d3d

fc_model.2.bias f4 [84]
-0.07831552 -0.034489963 0.014174878 0.08273568 0.06215338 0.0069574066 -0.019161886 0.0018882251
-0.08327701 0.04345038 -0.04908599 0.025282381 0.039587107 -0.032866463 -0.002484138 0.0035372353
-0.08015102 -0.022697968 -0.059674833 0.0030863343 -0.08733833 0.030230045 -0.03595582 -0.04496495
-0.015595933 -0.040793713 -0.03443842 -0.0125452615 0.08277686 -0.049795907 -0.036479805 0.066192836
-0.004533584 0.07628128 -0.039858643 -0.04379264 -0.060605127 0.041050173 -0.09259308 -0.009628854
-0.05007061 -0.08169621 -0.090904355 -0.014215015 0.0052054464 -0.088060506 -0.06746351 -0.0387702
-0.029083438 -0.059551265 0.061907362 -0.05089003 0.04370855 0.09496985 -0.07903108 0.018301025
0.019194782 -0.07057667 0.019404404 0.03250071 0.029190091 -0.053626433 -0.053985868 -0.05275186
0.03077064 -0.08891751 0.070047274 -0.005783923 0.076933146 -0.058845002 0.0003911634 0.040616713
0.08747042 -0.038639598 0.064733446 0.089574344 0.060770225 -0.030484764 0.015318645 -0.0723076
-0.060845386 -0.053900667 -0.07809197 -0.08107079
00000000: e363 a0bd 5945 0dbd bf3d 683c 5371 a93d
00000010: 8b94 7e3d f5fa e33b 63f9 9cbc 527e f73a
00000020: 238d aabd 07f9 313d 640e 49bd ff1c cf3c
00000030: 1726 223d fc9e 06bd ebcc 22bb f6d0 673b
00000040: 3826 a4bd 17f1 b9bc 996d 74bd 1944 4a3b
00000050: 70de b2bd 00a5 f73c 6946 13bd 2b2d 38bd
00000060: 1686 7fbc 4f17 27bd 4d0f 0dbd a48a 4dbc
00000070: ea86 a93d cbf6 4bbd d96b 15bd 1c90 873d
00000080: 768e 94bb 5c39 9c3d d142 23bd e95f 33bd
00000090: 153d 78bd 3a24 283d 71a1 bdbd 57c2 1dbc
000000a0: d716 4dbd 5850 a7bd 102c babd 18e6 68bc
000000b0: 7392 aa3b 1159 b4bd 4f2a 8abd 80cd 1ebd
000000c0: 6440 eebc 07ec 73bd 9392 7d3d 1072 50bd
000000d0: bd07 333d 8d7f c23d 0cdb a1bd 08ec 953c
000000e0: 603e 9d3c 808a 90bd fcf5 9e3c 771f 053d
000000f0: 0f20 ef3c 64a7 5bbd 4920 5dbd 5612 58bd
00000100: b612 fc3c 621a b6bd f274 8f3d 1087 bdbb
00000110: 208f 9d3d 7507 71bd 1015 cd39 b65d 263d
00000120: b123 b33d 8e44 1ebd f892 843d c172 b73d
00000130: 33ea 783d 2fbb f9bc 0efb 7a3c 0216 94bd
00000140: 0339 79bd f2c6 5cbd afee 9fbd 7108 a6bd

fc_model.4.weight f4 [1, 84]
-0.11380895 -0.041745853 -0.03973073 -0.06321948 0.021164648 0.076311626 0.046912838 0.04207918
-0.0729765 -0.123287156 -0.03707295 0.084490076 0.10442396 -0.08026633 -0.1265163 -0.08040614
0.047353677 0.10004675 -0.027748862 -0.08220369 0.12826347 -0.03880157 0.13683023 -0.10988976
0.061662998 0.12003421 0.08634331 -0.11174518 -0.07350569 -0.09025528 -0.091675326 -0.041231945
0.108656496 0.061953906 -0.057658084 -0.0796574 0.073130585 -0.0972889 0.1344631 0.13713595
-0.08922139 0.11577921 0.07642025 0.09757064 0.14866832 0.032190133 0.029458698 -0.033139303
-0.11493774 0.04711956 0.128814 -0.03789069 0.06865128 -0.042005125 -0.101714544 -0.057311222
0.09297413 -0.07732399 -0.09993339 -0.10872547 -0.057427682 -0.05836221 -0.07897688 0.107311875
-0.079625174 0.029334323 0.12739861 -0.080132306 -0.09352931 0.1213041 -0.08941703 0.055837512
-0.09490516 -0.09515104 0.08374159 -0.051046614 -0.076176845 -0.04092644 0.115122214 0.08606997
0.04985171 -0.05221277 0.09872182 0.081282325
00000000: ab14 e9bd b3fd 2abd b1bc 22bd 3779 81bd
00000010: 7c61 ad3c 4549 9c3d ad27 403d 385b 2c3d
00000020: b474 95bd fa7d fcbd ced9 17bd 2209 ad3d
00000030: 3bdc d53d ac62 a4bd 7d8d 01be f9ab a4bd
00000040: eef5 413d 4fe5 cc3d 9551 e3bc 695a a8bd
00000050: 8057 033e 65ee 1ebd 391d 0c3e e20d e1bd
00000060: 5792 7c3d 7fd4 f53d c3d4 b03d a8da e4bd
00000070: 278a 96bd c3d7 b8bd 46c0 bbbd d4e2 28bd
00000080: 4c87 de3d 61c3 7d3d e22a 6cbd 6b23 a3bd
00000090: 7dc5 953d 673f c7bd b2b0 093e 5e6d 0c3e
000000a0: b4b9 b6bd a71d ed3d 3882 9c3d 1ed3 c73d
000000b0: 823c 183e cdd9 033d 5e53 f13c 14bd 07bd
000000c0: 7a64 ebbd 7100 413d d1e7 033e 4533 1bbd
000000d0: 0b99 8c3d 910d 2cbd b74f d0bd 2cbf 6abd
000000e0: 3869 be3d 0a5c 9ebd e1a9 ccbd 76ab debd
000000f0: 4a39 6bbd 360d 6fbd a1be a1bd 54c6 db3d
00000100: 8612 a3bd 894e f03c c874 023e 681c a4bd
00000110: 4b8c bfbd 496e f83d 4720 b7bd e0b5 643d
00000120: a35d c2bd 8cde c2bd b680 ab3d 4116 51bd
00000130: 9b02 9cbd 7ca2 27bd 32c5 eb3d 7445 b03d
00000140: 4f31 4c3d 0fdd 55bd aa2e ca3d 5977 a63d
